data.pth (torch, 5015 bytes, 6 tensors)

l1.weight f4 [8, 54]
00000000: 3af3 053f a8e3 0f3f 09c4 ccbe 66d4 cf3e
00000010: 7317 6d3e c937 09bd 4bda f13c 8a36 06be
00000020: ec3d ebbe 4b36 86be f72c 6e3e c887 31be
00000030: f3a9 17bc 8f4e 4dbe 8cf1 e03e 9fac 81be
00000040: d08b cb3e 9691 10bd ba1f 2b3e 0c0c 083f
00000050: fc7e 193f 9eb7 983e 2d02 f33e 54c0 0b3e
00000060: 1226 e5bd ae58 a23e 497f f33d 3ff6 133f
00000070: 1695 653d 02ac 353f d8f3 43be 8ff7 cabe
00000080: f6ae bc3e 167a 9dbe 2147 073f ee39 91be
00000090: e584 923d 94e3 cbbe 4353 b8bd 2fd2 e0bd
000000a0: 4547 d8bd fc22 ad3d 58b4 81be 3c09 ec3e
000000b0: 433e 86be 06cd 043f e7cc 803f 97db 0a3f
000000c0: c0d6 c43e 55ed 933e 6a15 46bd 5bb5 623e
000000d0: 083e 4abd 4759 c73e d99f bc3d 512b 01bf
000000e0: 3d2e 2f3f 4913 653e 52e2 2b3f 1315 b7bc
000000f0: 5733 f43e d55c d53e e4ac 0b3f 65f5 fd3e
00000100: a31d 4d3e b497 f5bd c22c f43e 6b31 ba3d
00000110: 2c2c 01be 45a4 12be 5c92 bf3e 9278 aebd
00000120: 85b8 1a3e 136d 083f 6d35 25bc 2e14 ed3e
00000130: 3974 e73e 74a3 833c 9ab3 9f3e 9938 a13d
00000140: 0bc8 e33e 8c69 32bf 1cc2 893e c3e8 0abf
00000150: ebd5 00be c588 013e 0d72 733e db6c 413f
00000160: 28fb 38be 6920 5bbe 65bb a43e 523a 1f3f
00000170: 5d52 163f 759d 093f ca69 bd3d 82d6 e53e
00000180: 2f45 c4bd 1924 82be 58ea ba3e 3e1d 74be
00000190: 2a6a cbbe 1a31 64bd 422b cb3e 0c18 023f
000001a0: a864 d4bd 9f75 a93e ed31 223f 1f70 fc3e
000001b0: 6bd4 0b3f f7d6 5ebc b48f 823e 894d 48be
000001c0: 3509 21bd 6d0d 5d3f 724a 393e f5fb 4f3e
000001d0: a70f 903e 8c8d 863e 18a0 85be 5782 cdbd
000001e0: c042 b33d 70e1 26be f21d 7fbd b585 8abd
000001f0: b8e3 41be 2334 823f d2c4 723e 63de f9be
00000200: 0df4 e93e 09b4 ffbe 2b60 e0be 3196 eebe
00000210: 71ab 3b3d 575a 25be e9e2 8d3e 2258 dabe
00000220: 76cd ac3e 18ca 05bf 68b5 183f 3d34 f3bd
00000230: 8cc8 6d3e 3f36 913e d7aa 7dbe 3bcf 613c
00000240: 320e 803e a69f 0c3e 61ea 433e fac5 463d
00000250: 6c76 193f 32f3 423e af76 0abb 2911 1cbd
00000260: 011c 8d3e d605 44be cb44 4b3f aa61 013f
00000270: c8c9 b1bd 9b23 7c3e aa61 8e3d a279 903e
00000280: fef4 3c3e 0adf ab3e 29bf ebbd 6f24 56be
00000290: f39f 5e3e b33b 6d3e abf0 eb3e f53b 04bf
000002a0: 666d a93e 9b8f df3e 7676 333e eeba f73e
000002b0: cb7a ad3e 7197 e6bd 6566 b33e ed59 22be
000002c0: b641 3cbe f314 74bd e556 913e 5792 b5be
000002d0: 600f 783e ba8a 033f 86da 6ebe bc6d ab3e
000002e0: caef 093f f85d 3b3e 5cfd e4bd 54f4 ab3e
000002f0: a7da ae3e aa77 a7be 5836 8a3e 3733 ddbe
00000300: 63e1 61be fff0 57be 2049 cabb 139b 6d3e
00000310: f4ad 4fbc 7759 6bbe 1f9c 613e 52a0 7c3e
00000320: 90a1 a13e c441 a53e 8c78 34be f983 373e
00000330: c631 953d 1516 84be 03fb 373e 34a0 7ebd
00000340: 780b 1bbf b83f 2cbe 5bcb bd3e 2dfe 8a3e
00000350: 64f1 ebbd 2650 363e c4d3 123f e47d cf3d
00000360: 1742 c9bd 6882 d8be f58b eebe 9e21 503e
00000370: 6ddd 7e3e a53c 00bf 4325 d8bd efdf 66be
00000380: b7dd b4be 9173 7ebe a5a6 d73e 93cf 30bc
00000390: 1b3a b23e 902f 9dbd e705 00be c73d 45bd
000003a0: 8dc1 6d3e ce3b 00bf a11a a53e f086 e53e
000003b0: 629b 31be a7f2 113f 05e9 873e 66a0 923e
000003c0: 8a2d a13a 74d4 733e b275 b63e 4d31 5bbe
000003d0: 2f7b 243e 76f6 64be e24d b4be 8b2c c2bc
000003e0: 9886 3dbd 2322 abbe 139a bdbd 824d 293d
000003f0: 0f11 973e f92b d2be 6469 36be 03ba 7bbd
0.5232426 0.5620675 -0.39993313 0.40591735 0.23153476 -0.033500466 0.029523036 -0.13106743
-0.4594568 -0.26213297 0.2325934 -0.17336953 -0.009256828 -0.20049499 0.43934286 -0.25327012
0.39755106 -0.03529509 0.16711321 0.5314338 0.5995939 0.2982759 0.47462597 0.13647586
-0.11188902 0.31708282 0.11889512 0.57797617 0.056050383 0.7096559 -0.19135988 -0.39641997
0.36852235 -0.30757207 0.5284291 -0.2836451 0.07154254 -0.39822066 -0.09000256 -0.10977589
-0.105604686 0.08453938 -0.25332904 0.46100795 -0.26219377 0.5187534 1.0062531 0.5424132
0.3844509 0.28892007 -0.048360266 0.22139494 -0.049375564 0.389353 0.09210176 -0.5045672
0.6842993 0.22370638 0.6714221 -0.022348916 0.4769542 0.41672388 0.54560685 0.49601284
0.20030837 -0.11991826 0.47690398 0.09091457 -0.12614506 -0.14320476 0.3741635 -0.08519091
0.15109451 0.53291434 -0.0100835385 0.46304458 0.45205858 0.016069151 0.31191713 0.07872123
0.44488558 -0.696923 0.26905906 -0.54261416 -0.12581603 0.1264983 0.23773976 0.75556725
-0.18064559 -0.21399082 0.3217422 0.62198365 0.58719426 0.53755885 0.09248693 0.4489022
-0.09583508 -0.25418165 0.36506915 -0.2383928 -0.39729434 -0.05571089 0.3968144 0.5081794
-0.10370761 0.3309755 0.6335743 0.49304292 0.54621 -0.013601056 0.25500262 -0.19560827
-0.03931542 0.8634861 0.18094805 0.20310958 0.28136942 0.26279867 -0.26098704 -0.10034626
0.08752966 -0.16296935 -0.062284417 -0.06763784 -0.18934524 1.0172161 0.23707893 -0.4880248
0.45694008 -0.49942043 -0.4382337 -0.46598962 0.045817796 -0.16147743 0.2771218 -0.42645365
0.33750504 -0.52261496 0.59651804 -0.11875198 0.23221034 0.283617 -0.24772201 0.013782318
0.2501083 0.13732776 0.19132377 0.04852865 0.5994632 0.19038084 -0.002112787 -0.038102303
0.27560428 -0.19142851 0.79401845 0.5053965 -0.08681065 0.24622957 0.06952222 0.28217798
0.18452832 0.33568603 -0.1151107 -0.20912336 0.21740703 0.23167305 0.46082053 -0.5165399
0.33091277 0.4366425 0.17525658 0.48384804 0.33882746 -0.11259354 0.35039058 -0.15854616
-0.18384442 -0.05959029 0.28386608 -0.3546321 0.24224615 0.51383555 -0.23325548 0.33482158
0.53881514 0.18297565 -0.11181137 0.33584845 0.34151193 -0.32708484 0.26994586 -0.43203136
-0.22058634 -0.21088026 -0.006173268 0.23203687 -0.012675751 -0.22983347 0.22032212 0.24670532
0.31568575 0.32276738 -0.1762411 0.17921437 0.07284884 -0.25798097 0.17966847 -0.0621645
-0.60564375 -0.16821182 0.3706921 0.27147046 -0.11520651 0.17804012 0.5735438 0.101314336
-0.09827059 -0.42286992 -0.46591154 0.20325324 0.24889155 -0.50092536 -0.10553982 -0.22546361
-0.35325405 -0.24848773 0.42119327 -0.010791677 0.34809956 -0.076750875 -0.12502252 -0.04815462
0.23218365 -0.50091255 0.3224688 0.44829512 -0.1734443 0.57010883 0.26544967 0.28638
0.0012296897 0.23811513 0.3563667 -0.21405526 0.16062616 -0.22359642 -0.3521567 -0.02370288
-0.046270937 -0.33424482 -0.09257903 0.041333683 0.29505202 -0.41049173 -0.17813641 -0.06145669

l1.bias f4 [8]
00000000: 0b88 793f 1da3 4c3f 8f21 0a3f 373f 043f
00000010: 9b37 003f a287 f43e d1aa 003f 73f0 493f
0.9747321 0.7993639 0.53957456 0.5165896 0.5008485 0.4775973 0.50260645 0.7888252

l2.weight f4 [8, 8]
00000000: 0e14 433f 7299 3dbe fe69 123f 5f73 5bbe
00000010: d01a 3f3f c1ea 863f 3ed8 96bf 5b0a 80bf
00000020: 7633 ecbd 16ca 96be ec54 d13d b4b5 9bbd
00000030: cac2 8dbe 2d86 94be 00dd 57bd fcf5 f8bd
00000040: d125 293d dae5 a0be 37a7 783c 7d51 a5be
00000050: e17e 783e 5a9a 70be f1b2 59be 36db 7dbe
00000060: 8f53 aabe 2cfc 803f b969 bbbe 6c1b 6f3f
00000070: 714e 853f 10af 353f 9019 0ebf f0ff 4f3f
00000080: 1e77 893f 9b0f d3be 3dec f5bc 5f50 fdbd
00000090: 5753 eebd 8ff7 80be 7fb2 423f 70d8 ca3f
000000a0: 2946 7e3f 6069 573f 30c8 ba3f 7605 7abd
000000b0: 961c 80bf f3b6 82bf d9b9 b2bc 79c4 87be
000000c0: ee43 7a3f af72 d7bd cbec 85bf e634 053f
000000d0: 8c95 353f dfd4 413f 25f1 9f3f 53e5 f9bd
000000e0: c08d 6a3f 8b3c 723f 5614 9dbe 938b 7f3f
000000f0: 10eb 153f 20a8 9c3f 80b2 48bf 593b 0fbf
0.76202476 -0.18515566 0.5719298 -0.2143073 0.7465029 1.0540391 -1.1784742 -1.000316
-0.11533253 -0.29451054 0.10221276 -0.076030165 -0.27687675 -0.29008618 -0.052700996 -0.12156293
0.04129583 -0.31425363 0.015176586 -0.32288733 0.2426715 -0.2349638 -0.21259667 -0.24790654
-0.33266875 1.0076957 -0.36604097 0.9340122 1.0414563 0.7097025 -0.55507755 0.81249905
1.0739477 -0.41222844 -0.030019874 -0.12368845 -0.116369896 -0.25188872 0.76053613 1.5847301
0.99325806 0.84145164 1.4592342 -0.061040364 -1.0008724 -1.0212082 -0.021817135 -0.26517084
0.977599 -0.10519921 -1.0462888 0.5203384 0.70931315 0.7571544 1.2495466 -0.12201943
0.91622543 0.9462363 -0.30679578 0.9982235 0.585618 1.2238808 -0.7839737 -0.5594993

l2.bias f4 [8]
00000000: 4011 483e 603c 97be b0b3 2fbd 8bfc ec3e
00000010: 33fd 343f 14ba 2e3f c8da 01bc e777 cc3d
0.1953783 -0.2953825 -0.042895973 0.46286425 0.7069885 0.6825268 -0.007925697 0.09983807

l3.weight f4 [7, 8]
00000000: 294e 44bf 966c 1b3e e356 5fbe 5f10 343f
00000010: 5c47 673f bd51 e9bf cd53 a0bf 6f5b 8fbf
00000020: 962a 35bf e96c 73be f1c2 c1bc 6c90 85bf
00000030: 2240 2e3f f255 89bf 7d89 393f dc93 3ebf
00000040: 1ea5 b0bf 555c 8d3e 1d9a a73e f167 9bbe
00000050: 5e6d 243f b100 dc3e 01f3 9ebf 315d 5fbf
00000060: 05c5 95bf c60a 513e 7a4b 23be 786a ed3e
00000070: 8e02 c93c f4d5 babf aec8 253f 9c10 e63e
00000080: d9fd 223f 1a40 72be d293 14be 1d6c af3e
00000090: 8c57 96bf 3181 9bbf 4a6c 5c3e 7c92 083f
000000a0: bb91 8bbf 08e8 003e 2678 913e eec0 c73e
000000b0: 6611 afbf 5ba4 8f3e 4dcf 86bf cf0d 1c3f
000000c0: 9fb4 863f f2db 3bbe 2116 9bbe a4d3 b9bf
000000d0: 8f92 d8be b9fb 9b3e f73f 07bf 84d1 a43e
-0.7668176 0.15178141 -0.21810488 0.7033748 0.9034326 -1.822807 -1.2525574 -1.1199778
-0.70768106 -0.23772015 -0.023652526 -1.0434699 0.6806661 -1.0729353 0.72475415 -0.74444366
-1.380039 0.27609506 0.32734767 -0.30352738 0.6422938 0.42969278 -1.2417909 -0.87251574
-1.170075 0.20414266 -0.15946761 0.46370292 0.024537351 -1.4596543 0.6475934 0.44934547
0.6366859 -0.23657265 -0.14509514 0.3426217 -1.1745467 -1.2148801 0.21525684 0.5334852
-1.0903848 0.12588513 0.28411978 0.3901438 -1.3677185 0.2805508 -1.0532013 0.6095857
1.0523871 -0.18345621 -0.3029032 -1.4517713 -0.42299315 0.30465487 -0.5283198 0.32191098

l3.bias f4 [7]
00000000: 7c07 223e 3a63 40be 7897 e53e b31b af3b
00000010: ae99 0abf d7c4 653e f695 0abe
0.15823168 -0.18787852 0.44842124 0.005343878 -0.54140747 0.2243837 -0.13533768
